model.pth (torch, 379420 bytes, 24 tensors)

word_att_net.word_weight f4 [100, 10]
000000 e4 b6 ae 3d 40 74 15 bc e0 1f 2f bc 37 67 9c bd
       0.08530977 -0.009121954 -0.010688752 -0.07636874
000010 60 c7 10 bd 58 fc 06 bc af 60 1e bd b1 31 f5 3d
       -0.03534639 -0.008238874 -0.038666423 0.119723685
000020 e9 0f 24 bd fb b5 ff bd 76 6d a3 bd d6 14 09 be
       -0.040054236 -0.12485882 -0.079798624 -0.13386855
000030 f8 6e d1 bd 7d 9f 86 3d 04 ad 50 3d e3 c2 ca 3d
       -0.10226244 0.06573389 0.05094625 0.09900453
000040 ce 73 a7 3d 66 f8 2a be cf de 2d 3e fd 63 2c 3e
       0.08176385 -0.16696319 0.16979526 0.16835018
000050 79 6d 0f bd a7 3c de ba 6a a9 88 3c 70 2c 40 3b
       -0.03501651 -0.0016955332 0.016682345 0.0029323362
000060 52 5e 41 3d 0e 19 02 bd de 9f b4 3d fc 34 6a bc
       0.04720909 -0.031762175 0.08819555 -0.014294859
000070 a5 3a 2d bc 0f 98 3b 3c e0 5c 34 be dd 06 23 be
       -0.010573064 0.011449828 -0.17613554 -0.15920587
000080 f5 9c 6b be 62 da 55 3e 47 da 1e 3e f7 5e 6f 3e
       -0.23009093 0.20884088 0.15512954 0.2337607
000090 f9 fc 66 3e 77 43 92 be 8f f5 55 3e 2a 63 c1 3d
       0.22557439 -0.28567097 0.20894454 0.09442742
0000a0 b4 86 62 3d 4a d7 36 3e 78 b5 40 3e 14 84 41 be
       0.055304244 0.17855564 0.18819225 -0.1889804
0000b0 37 5c d0 bd 4f 78 33 be ff 9e 76 be 46 dd 0d 3e
       -0.101738386 -0.17526363 -0.2408409 0.1385394
0000c0 b1 76 f7 bd 14 d3 24 be e4 f4 ab 3d 09 00 da bc
       -0.120831855 -0.16096145 0.083963186 -0.026611345
0000d0 b4 a8 b1 3d 28 b8 e0 bc 65 04 0c be 5c 0e 71 3c
       0.08674756 -0.027431563 -0.13673551 0.014712896
0000e0 38 c3 bf bc 5b 43 23 bc b5 7d 0f bd ee f7 ea 3d
       -0.023408517 -0.009964789 -0.035031993 0.1147307
0000f0 35 bd 0f 3e 5d 4c a6 3d 9f d2 a7 3d a9 2f cf bd
       0.1403702 0.08120034 0.0819447 -0.10116512
000100 74 f0 b4 bd 0b 1e fb bd 2d 9a 8d bd bb 43 bf 3d
       -0.08834925 -0.122615896 -0.06914172 0.093390904
000110 30 fb 46 bd 4a 5a 81 bd 29 ba 6a 3e 09 ff 41 3e
       -0.048579395 -0.063160494 0.22922577 0.18944944
000120 80 6a e1 3d 59 07 9a bd 41 a0 82 be 73 3b fc bd
       0.110066414 -0.07520933 -0.2551289 -0.123160265
000130 ae 6b 6b be 4e 66 6f 3e eb 21 11 be 45 76 34 be
       -0.22990295 0.2337887 -0.14173095 -0.17623241
000140 5b c9 01 3d 33 8e 36 3e 04 60 34 3d 56 8a f2 bd
       0.03168617 0.17827682 0.04403688 -0.11842792
000150 b8 1a a3 bd c1 3e 11 be 4a 32 c1 bd 54 e1 aa 3d
       -0.079640806 -0.14184095 -0.0943342 0.08343759
000160 53 8f a5 bd 58 3c 3a be 02 e3 ce 3d 53 48 dd 3d
       -0.080839776 -0.18187082 0.10101892 0.108048104
000170 be 81 0b 3e e6 a1 8b bd 53 9c 0a be 54 d2 18 3d
       0.13623711 -0.06817989 -0.13536195 0.03730996
000180 04 86 e9 bd 52 d1 11 3e 1f a5 e2 bd 00 e5 90 bd
       -0.114025146 0.14240006 -0.110666506 -0.07074928
000190 0e 89 09 be 48 be 1c be 1b aa 09 be 35 ab 0d 3e
       -0.13431188 -0.15306962 -0.13443796 0.13834842
0001a0 f1 5a 41 3d 47 d3 93 3d a0 e2 02 3e 31 09 95 be
       0.04720587 0.07218032 0.12781763 -0.29108575
0001b0 b1 af 14 3e 98 20 07 3e 6f 80 ed 3d 16 2a 33 3e
       0.14520146 0.13196027 0.115967624 0.17496523
0001c0 3e 6c 2d 3e 73 5b 11 be 7f 9b 8b bd f9 37 2d be
       0.16935822 -0.14195041 -0.06816768 -0.16915883
0001d0 29 6d 11 be c7 8f f2 3d 12 18 17 be 98 25 d5 bd
       -0.14201798 0.118438296 -0.14755276 -0.10407561
0001e0 ff 79 30 3e 7f 76 13 3e 4b 64 72 3e 09 77 4c be
       0.17234038 0.14400671 0.23671071 -0.19967283
0001f0 bd 76 a0 be d4 b3 fc bd 3f fe 2c be 7b b0 18 3e
       -0.3134059 -0.12338987 -0.16893862 0.14911072
000200 e3 86 48 be d8 c8 6f be 68 20 0f 3e f3 fc 1d 3d
       -0.19582705 -0.2341646 0.13977206 0.03857131
000210 53 16 ec 3d 99 7e 93 3b a5 fd b2 bd 5d 10 8b bd
       0.115276955 0.0045011756 -0.08739785 -0.067902304
000220 fe 27 1d bd 94 1e af 3d e9 ca e8 bb eb e8 92 bd
       -0.038368218 0.08550754 -0.007104267 -0.07173332
000230 c9 4b f5 bd 04 a4 5d be 1d 99 5d be ed e2 5a 3e
       -0.119773455 -0.21644598 -0.2164044 0.21375628
000240 8e 1c 70 3e 44 e6 89 3e 43 9e 1a 3e 11 14 37 be
       0.23448393 0.2693349 0.15099435 -0.17878748
000250 a3 b6 84 3e 22 01 92 3e a0 93 ab 3d d5 1d 77 bd
       0.2592059 0.2851649 0.083777666 -0.060331184
000260 76 30 ba bc d4 3c 76 bd c1 bb 56 bd 50 f7 ff bc
       -0.022728186 -0.060116604 -0.05242515 -0.031245857
000270 1b f1 ee bd 78 49 c2 3c b6 f0 dc bd db 9f 50 bd
       -0.11667081 0.023716673 -0.107880995 -0.0509337
000280 a0 b5 4b 3e 6a a3 55 3e d1 b0 93 3e 62 46 7f be
       0.19893503 0.20863119 0.28845838 -0.24929193
000290 c8 a0 2c be 2e 80 43 be 87 bf 6b be 8b ed 62 3e
       -0.16858208 -0.19091865 -0.2302228 0.22160928
0002a0 71 ac 7d be b9 bc 60 be bf 58 0c bd 12 eb ce 3d
       -0.24772812 -0.21946992 -0.034264322 0.1010343
0002b0 09 f8 89 3d ff 32 7a bc 5c 35 06 be 6f bc b6 bc
       0.06736762 -0.0152709475 -0.13106292 -0.022306649
0002c0 62 02 0a be 50 78 d6 3d 13 64 b2 bb 4a 28 00 bd
       -0.13477471 0.104721665 -0.0054440587 -0.031288423
0002d0 19 e2 5e 3e 1b 67 15 3e 9a 47 24 3e ef 6f 55 be
       0.21765937 0.14590113 0.16042939 -0.2084348
0002e0 67 89 3b be 2b 4d 36 be 12 20 5d be e1 3f 40 3e
       -0.18314134 -0.17802875 -0.21594265 0.18774368
0002f0 f4 a8 d8 bd 5d e7 54 be b1 14 5d 3d 09 85 90 3d
       -0.105791 -0.20791383 0.05397481 0.070566244
000300 d0 54 b3 bc 91 46 b4 3c d5 11 d4 bd 87 9b 2a be
       -0.021891028 0.022006305 -0.10354964 -0.16660891
000310 ef f9 e0 bd 3b df 1a 3e 36 f4 5f bc 57 c1 1b be
       -0.10985171 0.15124218 -0.013669064 -0.15210472
000320 d0 f5 6a 3d e9 80 e1 bb 4d 3e a4 3c b7 b9 b0 bd
       0.05736333 -0.0068818224 0.020049239 -0.08629172
000330 37 8e 4a bd 6e 46 c0 bd e6 70 a6 bd 47 56 94 3d
       -0.049452033 -0.093884334 -0.081270024 0.072430186
000340 43 8c aa bd 19 bb 32 bd 65 01 1e bd 19 4b 6e bd
       -0.08327534 -0.04363546 -0.03857555 -0.058177087
000350 95 34 3b bd a7 99 d3 bc 01 3b de 3c be c7 57 bd
       -0.045704443 -0.025830103 0.027127745 -0.052680723
000360 5a 50 92 3d 5c 73 95 bc de eb d1 3c 45 00 85 3b
       0.07144232 -0.018243484 0.025625166 0.00405887
000370 f4 94 f0 ba 89 03 60 3d fd 61 61 3d 52 9e eb bb
       -0.0018354938 0.05469087 0.05502509 -0.007190504
000380 8b 5c b5 3d 56 e2 b7 bb fc 72 65 3a a4 02 b9 3b
       0.08855542 -0.005611698 0.0008752791 0.0056460667
000390 77 db c7 3d 31 7c 51 3d 58 da cb 3d 8b 59 4f 3e
       0.097586565 0.05114383 0.09953755 0.20249002
0003a0 7e 14 4b 3e 32 5e 1e be 2c 6d f1 bd e0 36 5d be
       0.19832036 -0.1546562 -0.11788401 -0.21602964
0003b0 b4 a3 db bd 1e f8 82 3e 58 3c dc bd 7d 0d 5d be
       -0.10724583 0.25579923 -0.10753697 -0.21587177
0003c0 30 c5 b2 3b 2e c4 87 bc f6 bd f5 bc 51 e8 c2 3d
       0.0054556355 -0.016573038 -0.029997807 0.09516967
0003d0 7e a0 8b 3c 15 fb 0e 3d fc 3a 19 3d a0 88 58 bc
       0.017044302 0.03490742 0.037409768 -0.013216168
0003e0 61 c6 84 3c 9c 64 b2 bc 14 2b 84 bd 4c ed f2 bd
       0.016207876 -0.02177649 -0.06453529 -0.11861667
0003f0 f6 40 eb bd a9 94 24 3e bf a5 a9 3d 5a 76 dd 3d
       -0.11487 0.16072334 0.08283567 0.108135894

word_att_net.word_bias f4 [10]
000000 05 ba a6 3d 42 bd f7 3e d0 f2 a0 3d 73 0e 9b bd
       0.08140949 0.4838658 0.07858813 -0.07571115
000010 15 e6 a8 bd 93 88 98 bd af 3a a2 bd 4e a1 9a 3d
       -0.0824701 -0.074479245 -0.07921349 0.07550298
000020 12 02 2f be f7 83 8c bd
       -0.17090634 -0.06861108

word_att_net.context_weight f4 [10, 1]
000000 3c 6a 3d be ca 84 19 be 3b d7 13 be f2 5c 57 3e
       -0.18497556 -0.14992061 -0.14437573 0.2103155
000010 5f 3c 12 3e 75 fd 3d 3e ba 67 38 3e c3 d4 0e be
       0.14280842 0.18553717 0.18008319 -0.1394835
000020 7f 52 22 3e d6 1b 06 3e
       0.15851782 0.13096556

word_att_net.gru.weight_ih_l0 f4 [150, 100]
000000 55 86 1d be a1 a4 08 3e fe 09 04 bd ee f2 b9 3d
       -0.15383275 0.13344051 -0.03223609 0.09079538
000010 2b 1e 05 bd 26 d7 82 bc 88 2a 12 be 9d b5 2c 3d
       -0.032499474 -0.015971731 -0.14274037 0.042165387
000020 d0 df 3a bd 39 cb 45 bd 68 b2 ab bc 62 ca d0 bd
       -0.0456236 -0.04828951 -0.020959094 -0.101948515
000030 4b 74 0d 3e a1 bb c1 3d 97 3e 11 3d 55 ae 23 be
       0.13813893 0.094596155 0.03546008 -0.15984471
000040 df 8b 02 3e 7c d9 94 be b0 12 58 3d 02 e0 33 bd
       0.12748669 -0.29072177 0.052752197 -0.043914802
000050 ec 84 e1 3c dc b0 cc bc 35 38 82 bc f5 c6 1f 3e
       0.027529202 -0.024986677 -0.015895942 0.1560324
000060 1d 5b 88 3c 54 2f 90 bd ba b8 55 3a 57 23 07 3b
       0.016645009 -0.07040277 0.00081528316 0.002062043
000070 d6 e7 59 3b 18 05 1a be 2c d6 08 3e 9f 73 28 3c
       0.0033249757 -0.15041006 0.1336295 0.0102814725
000080 ff 42 70 bc 3e 96 3e 3e bd 4a 8c bd 3a b5 66 bd
       -0.014664411 0.18612 -0.06850193 -0.056325175
000090 af 22 23 3e ac 09 13 3e c1 75 c2 bd f9 78 70 bc
       0.159312 0.14359158 -0.09495116 -0.01467728
0000a0 f3 92 33 bc d7 d9 f0 bd 55 1f 84 3d 0f 30 d2 3c
       -0.010960328 -0.117603 0.064512886 0.025657682
0000b0 fd 5d 1f bc 7d 60 e2 bd 18 41 ed 3c f0 f1 25 3d
       -0.009726998 -0.1105356 0.028961703 0.040513933
0000c0 fe 84 35 bd 12 3f 22 3d 45 b0 3f bc 21 4a ae 3d
       -0.044316284 0.03961093 -0.011699741 0.08510233
0000d0 1a 9e 33 3d d4 86 b7 3d 5d df ee bd 14 7b 35 bd
       0.04385195 0.08961263 -0.11663697 -0.04430683
0000e0 7c 8e 02 be da 7c 08 be b0 0e 87 3c c4 e2 95 bd
       -0.12749666 -0.13328877 0.016486496 -0.07318643
0000f0 ab 19 0a bd 56 15 0c 3e ee d0 2c be e4 ce 86 3d
       -0.033715885 0.13680014 -0.16876575 0.0658243
000100 0f 7b ab 3d c5 5a 58 3d 26 eb ed 3d 18 c1 92 3b
       0.08373081 0.05282094 0.11617117 0.004478585
000110 c5 53 25 3e 03 69 50 3d eb 36 8f bd dd fc 2f 3d
       0.16145237 0.050881397 -0.06992897 0.04296576
000120 9e 74 85 bc 83 f7 2e be cd 6a 4d 3e c0 1e 47 bd
       -0.016290959 -0.17086606 0.20060273 -0.04861331
000130 7a 0e 93 bd a0 c1 aa 3d 00 2f fa bc 28 9f 22 3d
       -0.071804956 0.08337712 -0.03053999 0.039702564
000140 a1 40 d4 bc 88 f9 bf 3c a8 41 bc bc ed d0 6b bd
       -0.025909724 0.023434415 -0.022980526 -0.057572294
000150 8e 5e 01 be 56 5a 2e be 08 0f 01 3e 1c 52 b6 bd
       -0.12633726 -0.17026648 0.1260339 -0.0890238
000160 4f 82 f2 bd f2 68 3c be 97 ef b6 3c c5 b7 02 bd
       -0.11841261 -0.18399408 0.022331042 -0.031913538
000170 55 3d 01 3d 72 47 21 3d 2d f5 ae 3c 99 64 e0 3d
       0.03155263 0.039374776 0.021357143 0.109566875
000180 00 6d b4 bd 23 23 30 be ba 14 12 3d ba 2c ff bd
       -0.088098526 -0.17200904 0.035664298 -0.12459703
000190 49 ef de bc 7d 3e 6c 3d 48 06 8d bd d7 7f ee 3d
       -0.02721371 0.05767678 -0.06885964 0.11645477
0001a0 f1 35 26 be 2a f7 1a 3e ef c5 40 ba 46 14 fb bd
       -0.16231515 0.15133348 -0.0007353713 -0.12259726
0001b0 c4 8e 84 bd 2e 76 4b 3c 64 ca b2 bc 98 2b 7d bd
       -0.06472543 0.012418313 -0.021825023 -0.061809152
0001c0 6f e1 1b be aa d5 12 be fe 9a c7 bb 6a c0 1f bd
       -0.15222715 -0.14339319 -0.0060914746 -0.03900186
0001d0 79 52 f6 3d 63 70 67 bd b0 b5 ca bd 51 c4 b2 3c
       0.12027449 -0.056503665 -0.098979354 0.021822127
0001e0 21 9e d2 bd 61 bb 34 bd 11 e5 a7 bd b8 61 8c 3c
       -0.10284067 -0.04412401 -0.08197988 0.01713644
0001f0 b7 b0 55 bd c1 e3 2d bd 90 6f 0d 3e 2f 8d 5b 3d
       -0.05217048 -0.04245353 0.13812089 0.05360144
000200 51 22 ea bd ca f8 56 bd c6 a9 4c be 32 b8 a5 bb
       -0.114323266 -0.052483357 -0.19986638 -0.005057358
000210 c6 97 34 be 07 3c 64 bd 68 c2 d2 3d 33 6b 16 bd
       -0.17636022 -0.05572131 0.10290986 -0.036723327
000220 13 0d 14 3e bf a3 16 3e 90 28 0e be f1 88 3e 3e
       0.14458112 0.14710902 -0.13882661 0.18606927
000230 d8 dc 9d 3c aa 5a 9d 3d 36 3d c9 3d 1e 1b 1e 3c
       0.019270346 0.076833084 0.09826128 0.00965002
000240 11 ee 39 3d 09 d6 18 3e d5 be 20 3e 4a a8 f9 bd
       0.045393053 0.14925398 0.15697797 -0.12190302
000250 43 17 f2 3c 1d db ec bc a9 9e 0b 3d a4 f6 f3 3d
       0.029552108 -0.028913075 0.034086857 0.11912277
000260 9b 45 96 bd 68 1b ce 3d 04 61 9f bd 2c a4 28 3d
       -0.07337495 0.10063821 -0.07782176 0.04117219
000270 32 dc 2c bd e7 cb 02 3e 36 36 7a bd a4 7e 70 bd
       -0.042202182 0.12773095 -0.061086856 -0.058714524
000280 74 fb 0d bd b9 f4 4a bc d9 b6 d8 3c 0c cf 71 3d
       -0.034663633 -0.012387448 0.026454376 0.059035346
000290 2b f6 19 3d 32 a2 d5 bd 5d 6f 3f 3d 6b 0b 50 3c
       0.03758828 -0.10431327 0.046737064 0.012698035
0002a0 43 9f b4 bd f6 90 cb bc 11 0e 2e 3d e0 08 f8 bb
       -0.08819439 -0.024849396 0.042493884 -0.0075694174
0002b0 7a 6c 11 3d 66 d8 9b bd 4f 4f 2f 3e 1b d7 e6 bc
       0.035503842 -0.07609634 0.17120098 -0.028178742
0002c0 b2 aa c5 3d ce 0b 80 3d 07 6a 89 3b cc c3 ad bd
       0.09651698 0.062522516 0.0041935476 -0.08484611
0002d0 89 3d 09 3e f1 13 33 bd 88 68 bb 3d 59 9c a8 bc
       0.1340238 -0.04372019 0.09150797 -0.020582365
0002e0 6b be 02 be e1 b1 95 3b ec ba a6 bd 23 f1 39 3d
       -0.12767951 0.004568324 -0.08141121 0.04539598
0002f0 49 09 c9 3d 94 c2 02 3e 6f 54 b3 bb d5 41 2e bd
       0.09816224 0.12769538 -0.0054727118 -0.04254325
000300 7c f5 08 be 68 6d 84 bd 7f 5e 6f bc dc 63 42 3d
       -0.13374895 -0.0646618 -0.014609932 0.047458515
000310 c7 a8 1e bc 7c 20 64 3b 66 c2 8d bd 9d bf 66 bd
       -0.009683794 0.0034809401 -0.06921844 -0.05633508
000320 4f 58 48 be 2b b3 95 bd d5 dd fd 3d 46 d5 81 bd
       -0.19564937 -0.07309564 0.12395827 -0.06339507
000330 84 3d 24 3e ea 0c 7e bd 46 11 b0 3d 42 ee eb bc
       0.16039091 -0.062024035 0.08597045 -0.028800134
000340 02 7c 0c 3e ab d2 44 bd 3e 04 fd bc 8c 67 b0 3d
       0.1371918 -0.04805247 -0.030885812 0.086135
000350 32 e4 4f bd a7 18 cc bc dd 03 2a 3d 89 2a a1 bd
       -0.050754733 -0.024914099 0.04150759 -0.07869441
000360 14 53 07 3e ab f9 61 bc 60 2f 9a 3d f2 d9 1e 3d
       0.13215286 -0.013792436 0.07528567 0.038782068
000370 2f aa 31 3d 5a f6 a3 3d b2 92 30 3e f2 cb b8 3d
       0.04337519 0.08005972 0.1724346 0.090232745
000380 07 dd 4a bd 19 c2 0f 3e 20 e8 55 bd f4 bb 31 3d
       -0.049527194 0.14038886 -0.052223325 0.043392137
000390 18 54 9a bd 36 91 14 3d e3 89 c2 bc ff 24 eb 3d
       -0.07535571 0.036271296 -0.02374739 0.11481666
0003a0 38 b8 4b bd 5c f3 aa bc 88 b9 f1 3d 48 89 ab 3c
       -0.04973623 -0.020867996 0.118029654 0.020939484
0003b0 48 e9 85 bb 15 1b f3 3d 98 b6 6e bc 2f 36 0c be
       -0.004086647 0.118704 -0.014569901 -0.13692544
0003c0 43 8c 6e be ef 13 ac 3c 59 c6 e6 3c c6 d9 51 bd
       -0.23295693 0.021005599 0.028170751 -0.051233076
0003d0 ab 07 54 bd ac cd ee bd 44 4c ca bc 29 69 70 3c
       -0.051765125 -0.116603225 -0.02469457 0.01467351
0003e0 be 7f e3 3c 9e 77 e1 bd a1 4c 20 3e 21 e8 b3 bd
       0.027770873 -0.11009143 0.15654232 -0.087845095
0003f0 1e 98 d2 bc 8e f9 eb 3c 62 b7 e3 3d 44 ed d8 bd
       -0.0257073 0.02880552 0.11118962 -0.1059213

word_att_net.gru.weight_hh_l0 f4 [150, 50]
000000 13 fe 1e 3c a3 85 08 3e 18 b1 fb bc 0a c2 51 3d
       0.009704131 0.13332228 -0.030724093 0.05121044
000010 2c 9f 56 bd a1 8c b8 3d c4 c9 2c be ff a6 de bd
       -0.052397892 0.09011198 -0.16873842 -0.10871696
000020 0c 68 5c be 70 8d 1c 3e 39 09 db 3d c4 7e 10 be
       -0.21524066 0.15288329 0.106951185 -0.14110857
000030 8b e4 50 3d 03 73 01 3d 8c 3b 05 be 8d d3 51 3c
       0.050999206 0.031603824 -0.13010997 0.012806785
000040 e9 6a d9 bb e5 da be bd 66 8c 17 be ec f3 6b 3d
       -0.006635059 -0.093190946 -0.14799652 0.05760567
000050 33 57 c8 bc 0f d0 8c bd d8 f4 6b bd e7 7a c0 3b
       -0.024455642 -0.068756215 -0.057606548 0.005874026
000060 36 10 91 bd 2e 5b d0 bc b3 40 30 3e 1f 29 b7 bd
       -0.0708317 -0.025434103 0.17212181 -0.0894339
000070 98 33 25 bd ef e5 a2 bd 36 6d 0a be 69 af c1 bd
       -0.040332407 -0.079540126 -0.13518223 -0.09457285
000080 a2 e7 4b be cb c1 d3 3d 50 42 a2 bd dc 19 2d be
       -0.1991258 0.103396975 -0.07922804 -0.16904396
000090 f1 56 e0 bd 0f 96 15 3d 8a ed ae 3d fc a9 7c bd
       -0.10954083 0.03652006 0.08541401 -0.061685547
0000a0 71 0f b5 3d b3 77 28 3d 05 5a 1a 3d 0a d5 a1 3d
       0.08840836 0.04112978 0.037683506 0.07901962
0000b0 d1 72 0f be 4f d8 88 bb d2 1f 1a be 3d 16 1b bc
       -0.14008643 -0.0041761766 -0.15051201 -0.009465751
0000c0 a2 93 7f bc 6a 1b 95 3c f6 e6 09 bd ef de 00 be
       -0.015599163 0.018201549 -0.033667527 -0.12585042
0000d0 ea be f2 bd 48 22 ae bc 8a 6f 58 3d 3b df 35 bd
       -0.1185282 -0.021256581 0.052840747 -0.044402342
0000e0 fa 20 06 be 04 79 e0 3d 52 4c f9 bc 9b 45 b4 3c
       -0.13098517 0.10960582 -0.0304319 0.022005847
0000f0 e8 5a d4 3d f5 fa a6 bd dd a7 6c 3c 84 15 28 3e
       0.103689015 -0.08153335 0.014444319 0.16414458
000100 e9 f9 bd 3d af c7 bc 3c cd 43 ce bd 0c fd 8e 3d
       0.09276182 0.023044435 -0.10071526 0.069818586
000110 be 37 82 3d 95 c4 ce 3a c8 68 a4 bd 5d 3f 2b 3e
       0.06358288 0.0015775139 -0.08027798 0.1672339
000120 8d c6 f9 bd bb 62 7a bd 45 23 1d 3e 71 e4 33 bd
       -0.12196074 -0.061129313 0.15345486 -0.04391903
000130 bb 2d bb 3b 5f 37 60 3e 1f 9c 6e bd 61 35 b9 3d
       0.0057122386 0.21896122 -0.058254357 0.09043384
000140 7c e0 b2 b8 05 d6 e8 bc 3e e3 86 3d d3 30 0c 3d
       -8.529515e-05 -0.028422365 0.06586312 0.03422625
000150 e8 ff 4a 3c 05 13 d4 3c 3a 34 7e 3d 53 ea 89 bd
       0.012390114 0.025887975 0.062061526 -0.06734147
000160 00 63 26 be ce bd d7 3d b5 ed 82 3d 5f 12 3a bd
       -0.16248703 0.10534249 0.06392995 -0.045427676
000170 90 00 5b bc 48 99 27 3d 63 c1 94 3d 8b 7b b2 bd
       -0.013366833 0.040917665 0.07263448 -0.0871497
000180 c3 e5 2d bd a7 6e 66 bd c2 41 03 be ba 6f bc bd
       -0.042455446 -0.05625787 -0.12818053 -0.09200998
000190 96 a3 c2 bb 58 e8 8e 3d f2 36 79 3d 50 96 a4 3d
       -0.005939911 0.0697791 0.060843416 0.08036482
0001a0 d2 4c 86 3c a3 66 33 bc 1e 3c bc 3b a5 4a 06 be
       0.016394053 -0.0109497635 0.005744471 -0.13114412
0001b0 19 e4 62 bb 7f 52 07 3c b4 c8 b9 3d db e3 0f 3d
       -0.003462082 0.008259415 0.09071484 0.03512941
0001c0 c2 b5 09 be ad 7e e5 bd 8a 4b f6 3d 26 29 b7 bc
       -0.13448241 -0.11205802 0.12026127 -0.022358488
0001d0 2b 98 09 be d2 f3 ae bd 6c 1b b8 3c d2 9b 41 3e
       -0.13436954 -0.08542599 0.022474013 0.18907097
0001e0 23 1e a7 bd 61 ce 58 be 5a ea 08 3e 3b ac 2e 3c
       -0.08160045 -0.21172477 0.13370648 0.01066118
0001f0 b2 bb fa 3d 43 66 82 bc 84 9e 17 3e 2c 7d 30 be
       0.12242831 -0.015917903 0.14806563 -0.1723525
000200 c5 74 01 be 83 25 b5 bc 07 00 ff bd 6d fe 49 bd
       -0.126422 -0.022112614 -0.12451177 -0.049314905
000210 72 e6 84 bd 11 8f 9e 3d 4e 58 aa bd 67 c4 ff 3d
       -0.064892665 0.077421315 -0.08317624 0.12488633
000220 f1 ec b1 bd 03 75 15 3e ed ea 72 bd 86 9b 09 3d
       -0.08687771 0.14595418 -0.059306074 0.033595584
000230 2a 66 af bd e6 b9 3e 3e 12 50 f1 3d 55 1a 01 be
       -0.08564408 0.18625602 0.1178285 -0.12607701
000240 75 ed 5e 3e 7f 3d 55 bd 0b ee c7 bd 9f a5 ff bd
       0.2177027 -0.0520606 -0.097622 -0.124827616
000250 c8 cb 08 3c aa fc 3b 3e ec 34 8e bd 2b 47 a1 3d
       0.0083493665 0.18358102 -0.06943688 0.07874902
000260 52 c8 ae 3d cd 77 13 3e 57 ac 01 be 60 fd 07 3e
       0.08534302 0.14401169 -0.12663399 0.13280249
000270 bb 31 86 bd a4 4e c1 bd b4 7c 10 3e d8 22 11 bd
       -0.06552454 -0.09438828 0.1411007 -0.03543362
000280 fc 38 6a bc ce e1 4e 3d b6 7b d1 bd ce 08 87 3d
       -0.014295813 0.050508313 -0.10228674 0.06593476
000290 1a 27 35 3e b4 ce a6 3d e1 9e 85 bd 6e 64 9e b9
       0.17690697 0.08144894 -0.06524444 -0.00030210934
0002a0 c8 27 07 be b1 34 05 3e e0 a9 9e 3d 42 e7 8a bd
       -0.13198769 0.13008381 0.07747245 -0.0678239
0002b0 99 c4 34 be 5a 14 96 bd 06 36 d6 3d 6c 18 ac 3d
       -0.17653121 -0.073281005 0.10459523 0.084030956
0002c0 37 3f c3 3d 10 d9 23 3e df a6 22 bd 2e 8e 4f 3d
       0.09533542 0.16000772 -0.039709922 0.050672702
0002d0 40 00 54 3d e4 c5 0a bb df e1 13 bd 2b 20 c7 3d
       0.05175805 -0.002117508 -0.03610408 0.097229324
0002e0 da a1 63 3d 90 97 c7 3d 54 a6 bd 3c 08 23 64 bd
       0.055574276 0.09745705 0.0231506 -0.05569747
0002f0 eb b1 d5 3c 99 cd 48 3e 46 f7 ad bd b1 ad 36 bd
       0.026085814 0.1960968 -0.08494429 -0.04459924
000300 c9 d6 1c bd 18 73 32 3e 56 5b cf 3d 66 bb 86 bd
       -0.038290773 0.17426717 0.10124843 -0.06578712
000310 e7 a1 0c be b6 91 36 be d1 ac 2a bc 91 da a5 3d
       -0.13733636 -0.17829022 -0.010417179 0.08098329
000320 19 a3 8c 3d e2 40 f7 3d ec 36 cd bc 02 f3 df 3d
       0.06867046 0.12072922 -0.025050603 0.10935022
000330 c9 f8 26 bd 91 a3 e6 bd 6d 87 d5 3c ec fa f8 3d
       -0.040764604 -0.112616666 0.026065553 0.121572345
000340 8c f1 30 bd 6b 7e 13 3e 14 6d a4 bd 82 df 53 3d
       -0.043199107 0.14403693 -0.080286175 0.051726826
000350 7e 98 db 3d e3 97 d9 3c 76 f5 96 3d 50 06 cd bc
       0.10722445 0.026561683 0.07371037 -0.025027424
000360 d9 cc af bc 20 8d ee bc d5 01 f4 bd 48 97 88 3d
       -0.021459984 -0.029120028 -0.11914412 0.066694796
000370 67 25 86 bd 11 a6 72 bd ef 16 1a be 1b 50 85 bd
       -0.06550103 -0.059240405 -0.15047811 -0.065094195
000380 4d 19 c8 3d db 34 1e 3c 88 ba 1c 3d 57 c0 29 3d
       0.09770451 0.009656156 0.038263828 0.041443195
000390 08 e7 a3 3d c6 01 fb bc 27 40 b6 3c db 2c c4 bd
       0.0800305 -0.030640494 0.022247387 -0.09578868
0003a0 9a c4 cb bd 97 c1 91 bd 25 e5 08 be 53 c0 b7 bd
       -0.09949608 -0.071170025 -0.13368662 -0.0897223
0003b0 db fb 51 be 28 c5 3e 3c fb e0 81 3c 81 d4 af 3d
       -0.20506231 0.011643685 0.01585435 0.08585454
0003c0 1c 73 81 3d fd 68 a1 bd 91 d0 14 3e 79 75 f3 bd
       0.063207835 -0.07881353 0.14532687 -0.118876405
0003d0 74 75 02 bd be 79 9b bc b2 f6 ea 3d 26 7a d8 3d
       -0.031850293 -0.01897895 0.11472835 0.10570173
0003e0 6f 6e 14 be 8c 77 fe 3c bd eb 85 3d f6 b6 43 bd
       -0.14495252 0.031062864 0.06539104 -0.047781907
0003f0 e7 2e a3 3d ab 46 95 3d ab 46 c5 3d cb 36 23 bd
       0.0796793 0.072888695 0.096326195 -0.039847177

word_att_net.gru.bias_ih_l0 f4 [150]
000000 59 27 82 3d 54 cb a8 bd 40 3d 24 3e f2 87 04 3d
       0.06355161 -0.08241907 0.1603899 0.03235621
000010 07 d8 f2 3d 86 b9 b8 bd 44 e6 5c bb 69 ed 5d 3d
       0.1185761 -0.09019761 -0.0033706585 0.05418149
000020 23 e7 36 3e e1 d1 c6 3c 2d 5d 10 3e f6 a3 32 3e
       0.17861609 0.02427 0.14098044 0.17445359
000030 b5 70 33 3c 3a 83 31 bc 39 ee 71 3d 86 8d e2 3d
       0.010952164 -0.0108345095 0.059065077 0.1106215
000040 bb b2 1d 3e ac 61 8c 3d ba 51 06 3e 82 8c 2e 3b
       0.15400212 0.06854567 0.13117114 0.0026634042
000050 f8 cb 1f 3e d0 d1 9c 3d 15 c3 2b 3e 56 14 09 3e
       0.15605152 0.07657206 0.16773637 0.13386664
000060 c1 33 42 3d 0d 59 ac 3d cf 4b 1a 3e fc 06 87 3d
       0.047412638 0.084154226 0.15067981 0.06593129
000070 54 35 d2 3c 15 1f c4 3d fa 5d c3 bd a0 7a 72 3d
       0.025660194 0.09576241 -0.09539409 0.059198976
000080 1c 8f 44 3d 46 4f cd bd 26 79 d6 bd e1 af e1 3d
       0.047988042 -0.10024886 -0.10472326 0.11019874
000090 ab 05 b3 3d db 96 ee bc 78 79 05 3d f5 2a a5 ba
       0.087413155 -0.029124668 0.032586545 -0.0012601303
0000a0 a6 d0 e3 bd 7b 5f 47 3d b9 88 40 3c a4 c6 0c 3e
       -0.11123781 0.04867504 0.011751347 0.1374765
0000b0 a6 de 0d 3e e1 72 16 3e 9e 33 b8 3d c4 59 c5 3b
       0.13854465 0.1469226 0.0899422 0.006022664
0000c0 ef 30 19 3e 99 be f7 3d 10 13 ec 3d d0 8a 3b 3e
       0.14960073 0.120969005 0.115270734 0.18314672
0000d0 87 19 b7 3d a6 dc f7 bd 23 f8 89 bc fe 6e 1a 3e
       0.08940416 -0.12102632 -0.016841954 0.15081403
0000e0 ee b9 14 bd 60 e5 cb 3d 20 0d 07 3d 2f 86 c2 bc
       -0.03631013 0.09955859 0.0329715 -0.023745624
0000f0 78 82 e2 3d 2e d4 ba 3d 73 50 1c 3d 6b 62 46 3d
       0.11060041 0.09122501 0.03816266 0.048433702
000100 90 e2 d1 bd 4e a8 c0 bb 40 ef ca bd de 7b dd bd
       -0.102482915 -0.0058794385 -0.099089146 -0.108146414
000110 44 cc 02 bd 45 81 2d 3e bb 03 08 3e 0f b3 29 3d
       -0.031933084 0.16943844 0.13282673 0.04143053
000120 c5 be 1a be 2e 00 b3 3b 18 a0 4c 3e 2c 47 27 3e
       -0.15111835 0.005462668 0.19982946 0.16335744
000130 28 7d 19 bd ef 9d 66 3d f8 74 6d 3b f1 f1 c7 bd
       -0.037472874 0.05630296 0.003623305 -0.097629435
000140 d4 9b e4 3c 12 90 65 3c d7 a2 ec bd c6 0c 13 be
       0.027906336 0.0140114 -0.11554497 -0.14360341
000150 c4 2e 0d bc 5c 03 9a bd b4 e9 c9 bc 8e f3 9b bd
       -0.008617107 -0.07520172 -0.024647571 -0.07614814
000160 a8 55 7c 3b 76 08 46 3d ae 32 40 3e 38 8d d7 3d
       0.0038503204 0.048347913 0.18769333 0.10524982
000170 ba 09 e8 3d f2 a8 89 bb da ee d6 bd b8 67 d1 bd
       0.1132998 -0.004201048 -0.10494776 -0.10224861
000180 a3 f4 11 3e e1 9d 4a 3e 1f 63 7a bd 69 ac 61 3d
       0.14253478 0.19786789 -0.061129685 0.055096064
000190 a0 3a 56 bd 05 0d 69 bd 9b 08 9c 3d fd 2b 1e be
       -0.052302003 -0.056897182 0.07618829 -0.15446468
0001a0 09 94 ac bd 44 71 9d 3d 1a c1 62 bd 5d 36 50 bb
       -0.08426673 0.07687619 -0.055359937 -0.0031770684
0001b0 7b 15 ca bd 24 f7 59 bd 66 69 f4 bd e3 c8 1d 3e
       -0.09867378 -0.053214207 -0.11934166 0.15408663
0001c0 08 11 0b 3e 1d 4a 90 3d 01 0e 00 be 4c 83 1c 3d
       0.13580716 0.07045386 -0.12505342 0.038211152
0001d0 97 18 74 bb a4 50 bd 3b 31 56 c4 3d 3f 58 55 bc
       -0.0037246102 0.0057774354 0.09586752 -0.013021528
0001e0 d9 59 a8 bd 61 43 00 be 7a 43 16 be e3 ce 29 3e
       -0.08220262 -0.12525703 -0.14674178 0.16582827
0001f0 f1 77 b7 3d df a0 d9 bd 3d 2b aa bc 80 68 de 3d
       0.08958424 -0.10626387 -0.02077257 0.108597755
000200 56 da 4a bd c9 ee 07 3d cc 45 03 3e 38 79 f0 3d
       -0.049524628 0.033186708 0.12819594 0.11741871
000210 f9 8e 75 bd 8a 07 07 3e 4a 89 b5 3d d3 33 b2 3c
       -0.059950802 0.1318647 0.088640764 0.021753227
000220 aa d2 a3 bd 7c 05 b3 bd 8f cc 21 3e 4c 16 e1 3d
       -0.07999165 -0.087412804 0.15800689 0.10990581
000230 bc 5f 19 3e ff 02 61 bd e1 1f 67 bd e8 b1 0d be
       0.14977926 -0.054934498 -0.056426886 -0.13837397
000240 d9 be 6a bc fe d5 92 bc 9c 2a 25 3d 78 b8 b9 bd
       -0.014327728 -0.017924305 0.04032384 -0.09068388
000250 7c 34 88 3c 31 25 08 bb
       0.016626589 -0.002077412

word_att_net.gru.bias_hh_l0 f4 [150]
000000 b9 03 1e 3e dd 67 ae 3d 18 5e 69 bc 49 33 0a 3e
       0.15431108 0.08515904 -0.014243625 0.13496126
000010 0d 1e e2 bd 4b 5c eb bd 0a fb d7 bb 60 d4 85 3d
       -0.11040888 -0.11492213 -0.0065912055 0.06534648
000020 a9 ce a1 3d 81 cd 3e 3e 5c 63 e1 bd d6 b2 26 3e
       0.079007454 0.18633081 -0.110052794 0.16279158
000030 1b 26 a5 bd fe 21 47 bd 67 51 2c 3e 1b 40 c4 3d
       -0.08063909 -0.0486164 0.16827928 0.0958254
000040 8e a3 38 3e 8a 64 54 bd 11 15 ec 3c f5 93 d0 3d
       0.18031141 -0.051853694 0.028818639 0.101844706
000050 1a 69 5e 3c 9b 5e f0 3c 67 b3 dd 3d 72 b7 40 3d
       0.013574863 0.029341986 0.10825234 0.047049947
000060 74 e6 0d 3d e6 17 6f bd 90 16 53 bd 70 2d 23 bd
       0.034643605 -0.0583724 -0.05153519 -0.039838254
000070 1e d4 01 bd 92 81 78 3d 86 99 02 3e e5 86 32 bd
       -0.03169643 0.060670443 0.12753877 -0.043585677
000080 c3 e2 74 3d d7 97 0e 3e 12 53 d5 3d bc 48 83 bd
       0.05978657 0.1392511 0.10416235 -0.06410357
000090 ce 5c 58 bd 3d 18 1d bc b7 28 87 3d aa 3e ed 3c
       -0.05282288 -0.009588298 0.065995626 0.028960545
0000a0 4e bd 12 3e b3 0c 8a 3d 04 57 80 bd dc 50 09 3e
       0.14330027 0.067407034 -0.06266597 0.13409752
0000b0 55 22 9f bd f2 63 44 3e 46 df 9c bc 50 0b 11 be
       -0.0777022 0.19178751 -0.019149434 -0.14164472
0000c0 a4 73 74 bd 36 f9 26 3e d4 32 e8 bd f9 95 97 3d
       -0.059680596 0.16306004 -0.1133782 0.07401652
0000d0 73 c5 a7 bd d5 0d 8d bc 8e 5c 4d bd 84 0a 67 bd
       -0.08191957 -0.01721851 -0.050137095 -0.056406513
0000e0 08 cf 87 3c 7e 11 c9 3c 82 4a db 3d ad 52 b2 3d
       0.016578212 0.024544474 0.107075706 0.087071754
0000f0 7c 40 0d 3e d0 8d 72 bd 1b 68 11 3d b6 5a dd 3d
       0.1379413 -0.059217274 0.035499673 0.10808317
000100 34 28 13 bd 53 b0 4d 3d f6 3f 04 be 07 7f 68 bd
       -0.035927013 0.050216984 -0.12915024 -0.056761768
000110 63 04 69 bd 2f 74 00 bd bf d0 76 bd 95 2a e8 3b
       -0.05688895 -0.0313608 -0.06025767 0.0070851543
000120 a0 cf 86 bd 1e 60 db 3d 65 8c 1f 3e 1d 2f 1d bd
       -0.0658257 0.10711692 0.155809 -0.03837501
000130 29 74 93 bd e0 1f 13 3d 4e 93 13 be d9 d0 78 bd
       -0.0719989 0.03591907 -0.14411661 -0.060746048
000140 41 8c a1 bd f4 5c 92 3d af 93 8f 3d 25 ba b3 3d
       -0.078880794 0.07146636 0.0701059 0.087757386
000150 29 1b 2e 3e 6d 99 38 bd b1 a2 db 3d 2e 91 f0 3a
       0.17002548 -0.045068193 0.1072439 0.0018353814
000160 d5 ea 4d 3e 81 8e b9 3d 17 d2 f9 3d 7e 87 c3 bc
       0.20109113 0.090603836 0.121982746 -0.023868319
000170 54 aa 7f bd fb 0b 48 3d 07 e2 93 3d d7 f9 00 3e
       -0.062418297 0.04883955 0.07220846 0.12595306
000180 17 c2 1d 3c 36 36 71 3e ef 55 62 3c 34 a2 b9 3d
       0.009628794 0.23555836 0.0138144335 0.09064141
000190 fe 11 4d 3d 05 69 5c bd 84 60 20 bb 50 30 20 bc
       0.050065987 -0.053811092 -0.002447159 -0.009777144
0001a0 fb d6 fc 3d 52 a2 9a 3d bc af 8c 3c ff d3 e7 bd
       0.12345692 0.075504914 0.01717364 -0.11319732
0001b0 d3 74 01 3e 89 08 4b 3c 72 1e 2a 3c 1f a5 b5 bd
       0.12642221 0.012392172 0.010383235 -0.08869385
0001c0 b6 83 cd 3c 7d 7c 9e 3c 4d c3 59 bd d4 98 fd 3d
       0.025087219 0.01934647 -0.05316477 0.12382665
0001d0 2c 40 bc bd c8 c9 82 3c 93 78 14 3e fd 85 c2 3d
       -0.09191927 0.015965357 0.1449912 0.094982125
0001e0 96 c8 3a bd 21 86 c6 3d 7d ed 0c 3d f7 bc 0a 3d
       -0.04560145 0.09693552 0.034406174 0.033871617
0001f0 55 1b fe 3d ca 2e 1f 3d f5 40 b5 bc 97 f5 12 3d
       0.12407557 0.03886298 -0.0221257 0.035878744
000200 83 67 da bb c3 77 45 3d fa 63 c4 3d 0a 07 f7 3c
       -0.0066651716 0.048209917 0.095893815 0.030154724
000210 9c c7 87 3d cc 6a 97 bd 6a 76 00 be 00 59 1e 3e
       0.06629869 -0.07393417 -0.12545171 0.15463638
000220 03 e5 a8 3d a9 8f 98 3c e7 f0 39 3d f3 f3 14 bd
       0.082468055 0.01862319 0.045395758 -0.03636546
000230 72 45 93 bd e4 05 54 bc ec 1c 00 be e2 a7 46 bd
       -0.0719098 -0.012940858 -0.12511033 -0.04849995
000240 d6 64 1c be 33 95 b0 3c 8e bf 01 3e 12 bc 34 bd
       -0.15272841 0.021555519 0.12670729 -0.04412467
000250 32 c2 a1 bd 81 10 fd 3d
       -0.07898368 0.123566635

word_att_net.gru.weight_ih_l0_reverse f4 [150, 100]
000000 48 56 db 3d 24 5f 81 3c af 7b e9 bb 34 68 86 3d
       0.10709816 0.015792437 -0.00712534 0.06562844
000010 aa e8 f9 bb e1 91 11 bc 37 7b 7f bb 0d 7a 6c bc
       -0.0076266127 -0.008884878 -0.0038983354 -0.014433396
000020 e0 9d 0f be 14 b3 a5 3d 7a 8a 4d 3d cb c7 7f 3d
       -0.14025068 0.08090797 0.05018089 0.062446397
000030 31 ec 10 3e 29 cc 0c 3e 48 e1 1f 3e c7 1a 60 bd
       0.141526 0.13749756 0.15613282 -0.054713037
000040 4e f0 89 3d 57 49 3e bd 6c 3a 45 3c 79 c8 ea 3d
       0.067352876 -0.04645666 0.012037855 0.114640184
000050 3e 62 84 3d a7 09 ff bd 40 2a ac bd 37 50 3c 3e
       0.06464051 -0.12453013 -0.08406496 0.18389975
000060 25 46 20 3e 33 22 f1 bd 10 f0 03 bc a9 a4 a8 3d
       0.15651758 -0.11774101 -0.008052841 0.082345314
000070 a9 15 f0 3a 80 11 3f be 22 c8 18 3d d4 58 f3 3d
       0.0018317002 -0.1865902 0.037300237 0.11882177
000080 4a 17 9c 3d fc 45 ee 3d a9 44 1b 3d 63 40 8d 3c
       0.076216295 0.11634442 0.037907276 0.017242616
000090 b4 78 08 be 1c c5 58 bd 6d 5b 07 3d 99 95 31 3e
       -0.13327295 -0.052922353 0.033046175 0.17342223
0000a0 cc c8 08 be c4 94 0a 3a d8 7d 67 3d af c2 96 bb
       -0.13357848 0.000528645 0.0565165 -0.004600845
0000b0 71 e8 37 3e db d1 9d 3c e4 4c 19 3e d0 51 d1 bd
       0.17959763 0.019265106 0.14970738 -0.102206826
0000c0 2c 13 e3 3d b5 57 b4 bd 5b 59 ce 3c 87 0b 29 bd
       0.11087641 -0.08805791 0.025189092 -0.04127076
0000d0 ee 3a e7 3d 0a af 0b bc b3 01 04 be 9a 39 c8 3d
       0.11290537 -0.008525619 -0.12891273 0.097766116
0000e0 f7 78 bb bc 65 08 31 be e7 90 5e 3d 6b 64 4c 3b
       -0.022884829 -0.17288359 0.05433741 0.0031187783
0000f0 4e c8 17 bd aa 91 d7 bb a3 86 b0 3d b3 66 85 3c
       -0.03705626 -0.006578644 0.0861943 0.016284322
000100 2b 10 99 3d 85 a7 0c 3d 71 55 c5 bd eb dc c1 bd
       0.07473787 0.034339447 -0.09635437 -0.09465965
000110 70 71 f1 bd 40 54 4b bd 2e be 80 bd b8 14 2c be
       -0.117892146 -0.049640894 -0.06286274 -0.16804779
000120 6e c5 01 be bf 14 98 3d aa 93 6a bd 91 01 81 3b
       -0.1267297 0.07425832 -0.05726973 0.0039369543
000130 f8 33 db bd 35 70 01 3d 0f 63 2b be 23 3c f1 3c
       -0.107032716 0.03160115 -0.16737007 0.02944762
000140 63 f9 96 3c b5 b5 b5 3b 53 d9 60 bd bd c3 0b bd
       0.018429464 0.005545343 -0.054894757 -0.034122217
000150 91 a8 b8 3d d0 fc f9 bb ba 19 88 3d cb 94 d4 3d
       0.090165265 -0.0076290146 0.06645532 0.103799425
000160 4f c0 15 3c 75 af 9b bd 3f 72 a0 3b e4 b6 c2 bd
       0.009140088 -0.07601825 0.0048964317 -0.0950754
000170 f7 06 a6 3c 5b b8 cd 3d 8d 5d 82 3d a4 da 04 3e
       0.020266993 0.10044929 0.063655 0.1297403
000180 32 fb 0b be 30 f0 36 bc d7 08 3e 3e 4e 94 23 3d
       -0.13670042 -0.011165664 0.1855806 0.039936356
000190 9b 56 44 bd 49 25 33 3e 34 2e 1b 3e 91 cb 1b be
       -0.047934156 0.17494692 0.15154344 -0.15214373
0001a0 a2 18 82 3d d7 1d 2d 3e 25 3e 81 bc a0 c3 e8 3d
       0.063523546 0.16905914 -0.015776703 0.113654375
0001b0 d0 04 0d bb c0 bc 2d bc f7 7c 0e 3e cb c2 0f be
       -0.002151776 -0.010604084 0.13914858 -0.14039151
0001c0 e4 30 03 3e d1 d7 97 bd 0e 9e 2a 3e 92 ff b8 3c
       0.12811619 -0.074142106 0.16661856 0.022582803
0001d0 14 70 fc bd c6 62 1f be c9 3c 27 bd f3 26 27 bd
       -0.12326065 -0.15565023 -0.040829454 -0.04080863
0001e0 24 c3 e9 3d ed c8 17 3d ed 81 92 3d 19 bd 27 3e
       0.11414173 0.037056852 0.071536876 0.16380729
0001f0 1c 8e ff 3d d3 c1 7c 3d 61 79 5b 3d 5d 0b 3a 3d
       0.12478277 0.061708283 0.053582553 0.045420993
000200 f9 8c f3 3d 0c 41 d3 3d 0a f6 1a bd c8 6c c8 3d
       0.11892123 0.10315141 -0.037832297 0.097863734
000210 db 59 04 be 1e f6 15 3e c6 44 98 3d 2a 96 d8 3c
       -0.12924902 0.14644668 0.074349925 0.026438791
000220 2c 84 10 be 6a 55 01 3e 9a a1 83 bc 1b e6 e0 3b
       -0.1411292 0.12630239 -0.016068269 0.006863368
000230 e3 c1 ba 3d 95 27 e5 bd 46 ae e6 bd 25 2b 23 bd
       0.09119012 -0.1118919 -0.11263709 -0.039836068
000240 55 c2 0d 3e a1 e4 a9 bd 3f dc e4 3c fe 39 4e 3d
       0.13843663 -0.08295561 0.027937053 0.050348274
000250 35 04 b7 bd b8 cf bd bd 96 1e 4c bd e7 d1 69 bc
       -0.08936349 -0.09268135 -0.049833857 -0.014271236
000260 59 b9 12 3d 60 7c 0e 3e 67 26 82 3c f0 9b 49 3d
       0.035821293 0.13914633 0.015887452 0.04922098
000270 ba 43 e2 3c d5 24 2d be 54 c4 d5 bd 1d 9e d8 bd
       0.027620185 -0.16908582 -0.10437837 -0.10577033
000280 cf 4c 82 bd b0 55 2a 3e 3a fd 37 be 7e 23 1b 3d
       -0.06362306 0.1663425 -0.17967692 0.037875645
000290 c0 ef 4c 3e ad a6 24 3e 30 94 85 bd 9d 80 4f 3e
       0.20013332 0.16079207 -0.06522405 0.20263906
0002a0 15 82 18 bc 66 49 06 3e 18 38 f9 bc 0b 40 d1 3d
       -0.009308358 0.13113937 -0.030422255 0.10217293
0002b0 29 36 08 bd 2b f1 b7 3d 25 68 94 3d 60 c9 86 bc
       -0.033254776 0.08981546 0.072464265 -0.016453445
0002c0 7d 82 7a bd 29 6e ef 3d 49 6f b5 bd b2 75 e5 bd
       -0.0611596 0.11690933 -0.088591166 -0.11204089
0002d0 24 c0 08 3e aa 63 a2 3d 10 32 bd 3c f3 b8 e0 3d
       0.13354546 0.07929166 0.02309516 0.10972776
0002e0 8e f6 1a be 62 65 8d 3c e9 01 5d bd 5c bf 40 3e
       -0.15133116 0.017260257 -0.0539569 0.18822998
0002f0 50 22 0c 3d a8 55 47 bd 1b a2 9f 3d e6 97 74 bd
       0.03421241 -0.048665673 0.07794591 -0.059715174
000300 e5 2e 24 be 2c ad 96 3c bd 16 05 bd eb 25 d4 bb
       -0.16033514 0.018393122 -0.032492388 -0.0064742467
000310 0f 8c fe bd b0 d2 3b 3d 01 4d 38 bd d5 f7 b3 bc
       -0.12429058 0.045855224 -0.04499531 -0.021968761
000320 77 f1 f8 39 be 21 aa 3d b8 86 ad bd 70 7e 32 be
       0.0004748215 0.08307217 -0.08472961 -0.17431045
000330 e2 e0 5a 3e 65 f7 3f 3e 27 c8 e9 bb 70 13 a2 3d
       0.21374848 0.18746717 -0.0071344557 0.07913864
000340 d9 f7 35 bd bf 34 77 bd 67 70 34 3e ff e7 e5 3b
       -0.04442582 -0.060353037 0.17621003 0.0070161815
000350 da 3c f3 3d fa d3 ca 3c a4 9c 20 3e e3 5c 42 be
       0.11876841 0.024759281 0.15684754 -0.18980746
000360 78 9e 01 3e 59 67 91 3d e5 9e 66 bd c9 4b 8c 3d
       0.12658107 0.0709979 -0.056303877 0.06850392
000370 b5 57 41 3e f5 32 a9 bd 2d 61 e8 3d a3 ff f8 ba
       0.18881114 -0.082616724 0.1134666 -0.0018997084
000380 47 b7 30 3e e5 1c 2a bd 5d 1c 0b bc 22 73 d8 bd
       0.17257415 -0.041531462 -0.008490649 -0.10568835
000390 4f b7 a1 bc b3 e2 6a be 0c 04 52 bd d4 fb b4 3d
       -0.019740729 -0.22938041 -0.05127339 0.08837095
0003a0 62 44 96 3c 37 ae 39 3e 60 db 05 be 2b 77 2b bd
       0.018343154 0.18132864 -0.13071966 -0.041861694
0003b0 70 63 67 3d 74 53 a8 bc d8 41 88 bd 29 55 08 3e
       0.056491315 -0.020547606 -0.06653184 0.13313736
0003c0 34 95 1f bd 01 51 6f be 9f db c4 bd 31 87 f3 bd
       -0.03896065 -0.23370744 -0.09612202 -0.1189102
0003d0 2a 4b e0 3d 59 31 99 bd 77 22 b2 3d 5b 4d 1c be
       0.109518364 -0.074801154 0.0869798 -0.15263884
0003e0 cd 7d e9 3c ae f5 9b bd ce 80 31 bd f3 f5 69 bd
       0.02850237 -0.07615219 -0.04333573 -0.05711932
0003f0 0c bb ba 3d e4 49 ad 3d 7f ba 3c 3d 25 83 35 be
       0.091177076 0.08461359 0.046076294 -0.17725809

word_att_net.gru.weight_hh_l0_reverse f4 [150, 50]
000000 87 dc 87 3d 2e 70 a5 3c 39 7e 8a bd e9 4a d6 3d
       0.06633859 0.020195093 -0.06762356 0.10463507
000010 2f 98 08 bc 4d 0f 2a 3e b0 d2 ed 3d 01 17 18 3e
       -0.008337065 0.166074 0.11612451 0.14852525
000020 0c f7 3b be 8d fc b7 3d 74 33 8a 3d 0b 47 65 bc
       -0.1835596 0.08983717 0.06748095 -0.013993989
000030 96 11 39 3d b3 91 31 3e 33 7b da 3c a6 51 2c be
       0.045182787 0.17340736 0.026670074 -0.16828021
000040 d6 d4 73 3d 9a 61 b0 bd c8 97 bf 3d 84 44 e7 ba
       0.059529148 -0.08612366 0.09355122 -0.0017644321
000050 f9 ad 03 be 64 1a f5 3d 01 7b 2f bd 03 da ac 3c
       -0.12859334 0.11967924 -0.042841915 0.02110005
000060 47 9d d4 3d 67 db 35 bd d2 2d 84 3b cb 1f da bc
       0.10381561 -0.04439869 0.0040337825 -0.026626488
000070 07 0f ed 3c 6f dd 8b 3c 72 d1 26 3d 08 fc 87 3d
       0.02893783 0.017073361 0.040727086 0.06639868
000080 64 a1 12 be 03 54 30 3e 29 7f 45 be 82 f3 b9 3c
       -0.14319378 0.17219548 -0.19286789 0.022699121
000090 b6 ab de bb b9 5e 69 3d c9 89 00 bd c5 85 3e be
       -0.006795372 0.0569751 -0.031381402 -0.18605717
0000a0 5b 52 fb 3d 7e 63 ad bd a9 01 47 3e 95 64 b5 3d
       0.122715674 -0.08466242 0.19434227 0.08857075
0000b0 ac 38 81 bd cf 8b 3d be 33 13 54 3d f0 d6 5b 3d
       -0.063096374 -0.18510364 0.051776122 0.053671777
0000c0 1b d9 58 bd 51 54 cd bd c5 26 f4 3d ef 5d 09 3e
       -0.052941423 -0.10025848 0.11921457 0.13414739
0000d0 af 77 bf 3d 73 5a 6d 3d 62 9a 36 bd fb 57 b3 3d
       0.09349 0.057947587 -0.044580825 0.08757015
0000e0 86 6d af 3d 04 3f af 3d 01 93 44 bd f5 69 2b 3e
       0.08565812 0.08556941 -0.047991756 0.16739638
0000f0 20 85 32 3d 15 64 23 3e fa 3f ba bd 94 ca eb bb
       0.04358399 0.15956147 -0.09094234 -0.00719578
000100 bd 01 7d 3d bd ad 82 3b 51 22 10 3c 82 22 d1 3c
       0.061769236 0.0039879964 0.008797244 0.02552915
000110 42 db 01 bd ae 8b f3 3d 96 8f f7 3d cb 19 5b bd
       -0.03170324 0.11891876 0.12087934 -0.053491395
000120 6d 9b ae bd 72 01 d6 3c 71 2d 26 3e 23 5d b1 bd
       -0.08525739 0.026123736 0.16228272 -0.086603425
000130 c8 68 ac bc 43 f9 ce bd a1 57 81 bd 24 b7 19 3e
       -0.021046057 -0.10106137 -0.06315542 0.15011269
000140 07 a7 0e 3e f5 5e 24 be 19 3a b7 3d 63 e8 87 3d
       0.13930903 -0.16051848 0.08946628 0.06636121
000150 36 11 b0 3d 3d f3 04 be 51 43 0f 3e fe 45 b9 3d
       0.08597033 -0.12983413 0.13990523 0.09046553
000160 62 6d 3b be bf 86 91 bc 10 be ff bc e2 e7 23 3e
       -0.18303445 -0.017764447 -0.031218559 0.16006425
000170 8b 93 7e bd 5d 5e d4 3c 70 8f d7 3c d6 23 d9 bd
       -0.062152427 0.025923902 0.026313514 -0.10602538
000180 17 09 d8 3d c8 c8 c1 3c 6a 23 b0 3d 40 cf d3 3c
       0.10548609 0.02365531 0.08600505 0.02585566
000190 59 01 c4 bc c7 86 75 bc 67 db ef bd bc b7 aa bc
       -0.023926424 -0.014985747 -0.117117696 -0.020839565
0001a0 38 49 e8 bd 55 27 b1 bd 78 99 6e bd 5e 42 fe 3d
       -0.1134209 -0.0865008 -0.058251828 0.12415002
0001b0 9b fa 13 3d c7 29 fd 3d 60 e4 3d be 33 a4 ea 3d
       0.036127668 0.12361484 -0.1854415 0.114571
0001c0 41 06 a7 3d 80 6b 8a 3d a4 03 4f 3e 26 b5 31 3d
       0.0815549 0.06758785 0.20216233 0.043385647
0001d0 97 f1 cc bd b6 ed 12 3e 88 cd 71 bd e7 7b af 3d
       -0.10007017 0.14348492 -0.0590339 0.08568554
0001e0 38 be a4 3d 2b c9 8a bd 97 0f 51 3d 1e 16 8d bc
       0.08044094 -0.06776651 0.05104026 -0.01722246
0001f0 61 88 8e bc 65 22 1b ba 99 5f ee bd 0c 1e 68 bd
       -0.017399015 -0.0005917906 -0.116393276 -0.05666928
000200 f3 ea 03 be 7d e5 6e 3c 6c dc 86 3d e4 80 04 3e
       -0.12882595 0.014581081 0.06585011 0.12939793
000210 99 59 e2 bd 0c 84 c4 bd 91 18 24 be 9e 78 24 3b
       -0.11052246 -0.095954984 -0.16024996 0.0025096308
000220 cc fa 0f 3e ba bf 2b 3c b4 53 22 be fb 6a 16 bd
       0.14060515 0.010482723 -0.15852243 -0.03672312
000230 c5 46 58 3d 73 c7 05 3d 1c 2c 5f 3d 1d b9 2c be
       0.052801866 0.032660913 0.054485425 -0.1686749
000240 8d fe 94 ba df 8f b7 3d 7b 6c d7 3d 87 a1 b3 bd
       -0.0011367366 0.08962988 0.10518738 -0.08771043
000250 f9 83 ed bd 4d 70 b8 bd 72 cf 81 bd bc 14 94 3c
       -0.115974374 -0.09005795 -0.06338395 0.018076293
000260 12 a8 1f be b6 84 ae bd 6a a7 c5 3d e1 50 8d bd
       -0.15591457 -0.08521406 0.09651072 -0.06900192
000270 0f d0 c8 3d a5 47 ab 3d 5c 99 53 bc 67 c3 e8 3d
       0.09805309 0.083632745 -0.012914982 0.11365395
000280 6b e3 4d 3d 6b f2 79 bc 58 0d dd 3d c0 ae 1e 3d
       0.05026571 -0.015255551 0.10793561 0.038740873
000290 05 f1 7d 3b e1 81 8d bd 0d 3f d5 bb fe 05 5c bb
       0.0038748395 -0.06909538 -0.0065077604 -0.0033572908
0002a0 d7 55 a7 bd d5 d1 04 3d 0e e6 22 be e5 26 9f 3d
       -0.081706695 0.032426674 -0.15908071 0.077710904
0002b0 dd bf ff 3d c4 f7 9a 3d 3b 48 da 3d 9b 7d 6b 3d
       0.12487767 0.07566789 0.10658308 0.057492834
0002c0 7c 06 10 bd 6a af 8e bb 11 77 00 3b 3b e2 b3 bd
       -0.035162434 -0.004354407 0.001960222 -0.087833844
0002d0 e3 ea 42 bd 79 c0 f8 bd 33 8a 17 be b5 6f ff bb
       -0.047587287 -0.12146086 -0.14798813 -0.007795299
0002e0 39 87 e0 3d b7 7e 99 3d 97 51 1d bd 2d 83 78 3c
       0.10963292 0.07494872 -0.03840789 0.0151679935
0002f0 5c b4 16 3d 0b f6 c1 3d 45 34 0f 3d e1 a1 39 3d
       0.036793098 0.09470757 0.034961957 0.045320395
000300 8e 77 92 bd 06 4f 18 be 4b 6f 2f be 32 db 67 bc
       -0.071517095 -0.14873895 -0.17132299 -0.014151381
000310 58 6d bf 3d 6d 45 4a 3d 1b 5c 29 bd 95 49 3c bd
       0.093470275 0.049382616 -0.041347604 -0.04596861
000320 b3 bc 2c bd 0b 15 d4 3d 4d 44 68 be 15 93 f6 3d
       -0.042172145 0.10355576 -0.22682305 0.120397724
000330 32 fe 0f 3d 74 07 21 bd c6 b0 9c 3d b0 22 e2 bb
       0.03515453 -0.03931375 0.07650904 -0.0069011077
000340 48 e8 e9 bc 12 69 fb 3d 76 37 ac bc 84 42 aa 3b
       -0.028553143 0.122759 -0.02102254 0.0051959176
000350 22 92 84 3d 43 a6 f3 bd 8d b2 14 3d 23 f1 8b bd
       0.06473185 -0.11896946 0.03630309 -0.068331026
000360 41 68 dd bd 0c fa 0b be 0b a4 1e be 23 2a 61 bd
       -0.108109005 -0.13669604 -0.15492265 -0.054971825
000370 dd 4e 5f bd 2f 82 dd 3d 13 cc 86 3d 22 81 90 3d
       -0.05451857 0.10815846 0.06581893 0.0705588
000380 99 a0 7e ba c2 60 f4 3c 5b b8 be bd 11 77 4b be
       -0.0009713262 0.029831294 -0.09312507 -0.19869639
000390 50 4c aa bc d3 8c 23 3e 28 ba 81 3d a5 90 35 be
       -0.020788342 0.15971689 0.063343346 -0.17730959
0003a0 c5 83 c6 bc c8 6f 38 be 17 95 8e bd 1c b8 14 be
       -0.024232754 -0.18011391 -0.069620304 -0.14523357
0003b0 29 0d aa bc 77 0d 99 3d e1 c1 9b 3d d4 24 43 bd
       -0.020758228 0.07473271 0.07605339 -0.047642544
0003c0 46 87 d6 bd bf a9 38 bd 97 66 09 3e a4 3c 14 be
       -0.1047502 -0.045083757 0.13418041 -0.14476258
0003d0 77 14 a6 3d 47 9f 94 3d cd 5e 38 bc 49 b1 9d bb
       0.08109372 0.07256942 -0.011253071 -0.004812394
0003e0 51 1b 99 bc 3d d0 df bc 5d c7 da 3d 5e 89 8f 3c
       -0.018689783 -0.027320975 0.10682557 0.017521556
0003f0 18 cc 58 bc a3 a9 b3 3d 2e 72 23 3d a9 22 de 3c
       -0.0132322535 0.0877259 0.039903812 0.027116137

word_att_net.gru.bias_ih_l0_reverse f4 [150]
000000 74 55 22 3e 68 06 bd 3d 87 f4 bc bd dd 5b 15 3e
       0.1585291 0.092297375 -0.092263274 0.14585824
000010 3b 39 96 3d 50 b6 03 3d 98 eb 2c bd cf 1c b8 3d
       0.073351346 0.03215629 -0.042216867 0.0898987
000020 16 bb 73 bd 17 4e 57 3d 81 55 db 3d 54 27 e4 bd
       -0.05950459 0.052564707 0.10709668 -0.11140314
000030 94 d5 12 3e b8 27 0a be 6b 29 00 bc 6f 05 11 3d
       0.14339286 -0.13491714 -0.007822375 0.035405573
000040 8c 65 02 be f1 90 02 3e 0d 2b 0e 3e cf 2a 38 3d
       -0.1273405 0.12750603 0.1388361 0.0449627
000050 f9 bb 5b 3c 1e 2b 7f 3c 13 e2 a7 3d 9d de da bd
       0.013411515 0.015574245 0.08197417 -0.10686991
000060 4b 33 ee 3c 13 4c e2 3d 9c 50 03 3d d5 e4 55 bd
       0.029077193 0.11049666 0.032059297 -0.052220184
000070 52 09 b7 bc 55 2a 10 3e 24 34 19 3c fb 32 e0 3d
       -0.022343311 0.14078648 0.00935081 0.10947224
000080 47 14 df bc 02 32 2a 3e 0f 62 38 3d 10 92 a0 3d
       -0.027231349 0.16620639 0.04501539 0.07840359
000090 65 05 32 3d cb 30 18 3e eb 16 f2 bc 28 b4 d7 3d
       0.043462176 0.14862363 -0.029551944 0.10532409
0000a0 d3 66 18 3d d6 5c f6 bd d9 45 0c be d5 33 7f 3c
       0.037207436 -0.12029426 -0.1369852 0.015576323
0000b0 8b 43 ff 3d 63 73 11 3e 7e 79 18 bd 5a b2 9a bd
       0.12464055 0.14204173 -0.03722524 -0.07553549
0000c0 d6 63 28 bd ec 2f 93 3d 41 56 0d 3c 98 4f 1c bd
       -0.041110836 0.07186875 0.008626522 -0.038161844
0000d0 b1 8a e5 3d f2 a8 25 3d 6c d0 56 3e 91 50 70 3d
       0.11208094 0.040444322 0.20977944 0.058670584
0000e0 7c da 97 3d 0d de 28 3e 64 1c 2f 3d c5 ef e1 bc
       0.074147195 0.16490956 0.042751685 -0.027580151
0000f0 1b 25 9c bd d8 c1 4e bd b9 2e 42 bd 45 c7 6a bd
       -0.07624265 -0.050477833 -0.04740784 -0.057318944
000100 8e ba 7b bb 73 df 57 3e 2b 6f 01 3e cb 4d fe 3d
       -0.0038410756 0.21081333 0.12640063 0.124171816
000110 3d 32 b8 3d 66 85 0c 3d 34 40 d7 bd ab f2 9f bd
       0.08993957 0.034306906 -0.10510293 -0.07809957
000120 83 eb 6f 3d 57 1c 8b 3d 45 5f 11 3e 3e 93 48 bd
       0.05857421 0.06792515 0.14196499 -0.048968546
000130 77 a9 ef 3c 68 9d 8c bd 2e 16 e0 3c 92 a8 12 bc
       0.029255612 -0.0686596 0.027354326 -0.008951323
000140 62 0a 11 3e fc 88 a6 bc 3e 57 11 3e e4 27 ad bd
       0.14164117 -0.020328991 0.14193437 -0.08454874
000150 47 6b 99 3d 9b 18 04 3e e7 52 3e 3e 1d 12 10 3d
       0.07491165 0.12900011 0.18586312 0.035173524
000160 1c 69 38 3d d0 2e 99 b9 5c 83 df 3d 91 f2 89 bd
       0.045022115 -0.00029217312 0.10913727 -0.06735719
000170 fd f5 b4 3c 66 62 53 bb d2 94 92 bd 0a c3 a3 bd
       0.022089953 -0.0032254695 -0.071572915 -0.07996185
000180 06 ff a0 3c cc bd 80 3d 48 0e 1a bd ef 5e 68 3b
       0.019652855 0.06286201 -0.037611276 0.0035456975
000190 2c 90 ba bc bd 40 e4 3d 31 77 5b bc 3e 49 90 3d
       -0.022773825 0.1114516 -0.013395117 0.0704522
0001a0 02 21 e7 3b a5 9b d3 3d 05 b2 e4 3d 18 90 f2 3d
       0.0070534954 0.10332421 0.11166767 0.1184389
0001b0 9f fd 19 3c a7 50 d5 3c 12 50 b2 bd f6 15 76 3c
       0.009398847 0.026039435 -0.087066785 0.015019884
0001c0 4a 28 4c bd 97 5b f6 3b 17 b8 f8 bd 09 a4 12 bd
       -0.04984311 0.0075182426 -0.12144487 -0.035800967
0001d0 e6 a1 88 bd be d2 a8 bd 8c 54 64 3d dd 23 29 3d
       -0.06671505 -0.08243321 0.055744693 0.041293968
0001e0 b4 6b 02 be 16 76 c9 bd f6 c4 d3 3d e3 14 76 bd
       -0.12736398 -0.09836976 0.10340302 -0.060078513
0001f0 ae 41 b3 3d ac 1b 53 3d ba 76 88 3d 78 8c 2b bd
       0.08752762 0.05154006 0.0666327 -0.04188201
000200 fb 33 f5 3d a5 84 04 3d df 6f 14 3e 8f 9b 87 3b
       0.11972805 0.032353062 0.144958 0.004138417
000210 4e 7c cf bd 15 53 0e 3e d5 64 e0 bd cf 34 af bd
       -0.10131131 0.13898881 -0.10956732 -0.08554994
000220 8c 29 77 bc 36 77 13 be a1 9a 2d 3d d1 03 80 3d
       -0.015085589 -0.14400944 0.042383794 0.06250728
000230 0a b4 10 3d cb 72 53 3d da 6c 13 3e a6 26 d1 3c
       0.03532795 0.051623147 0.14396992 0.025531124
000240 81 50 c7 3d 9a c8 f7 3d a8 b9 be 3d 42 75 c0 bc
       0.09732152 0.120988086 0.09312755 -0.023493413
000250 4a d6 99 bd cf e8 ce bd
       -0.075115755 -0.101029985
